saird_pinn_model.pt (torch, 38508 bytes, 8 tensors)

model.layer_0.weight f4 [64, 1]
0	0x3f5d3280	0.8640518
1	0xbf54d0a4	-0.8313086
2	0x3f34853b	0.70515794
3	0xbec74263	-0.38917837
4	0x3dc71a9b	0.097218715
5	0x3f4e99d4	0.80703473
6	0x3f4dced7	0.8039374
7	0x3f3c6d03	0.7360384
8	0x3f33c40f	0.70221037
9	0x3f352ada	0.7076851
10	0x3e450713	0.1924098
11	0x3f46ce65	0.77658683
12	0xbdcdf44e	-0.10056363
13	0x3ef6b6fb	0.48186478
14	0x3e2998d7	0.1656221
15	0x3ca86b7c	0.020559065
16	0x3e8478b6	0.25873345
17	0x3f71ae11	0.9440623
18	0xbf3640b1	-0.7119246
19	0xbf21af8e	-0.631585
20	0xbf36d719	-0.7142196
21	0xbf4cddf7	-0.8002619
22	0x3f050f36	0.51976335
23	0xbf1ec65e	-0.62021434
24	0xbead0acb	-0.33797297
25	0x3f620571	0.8828955
26	0x3e96db4f	0.29464194
27	0xbeada93d	-0.3391818
28	0x3e3e6822	0.18594411
29	0x3d5f0c0d	0.054454852
30	0x3e7b0541	0.24513723
31	0x3df5c2be	0.12000035
32	0xbf50b317	-0.8152327
33	0xbea98e0e	-0.33116192
34	0x3f6fde5b	0.9369866
35	0xbf369f61	-0.7133694
36	0x3f706fe6	0.93920743
37	0x3e5eafe0	0.21746778
38	0xbf3b5a47	-0.7318463
39	0xbecd4a89	-0.40095928
40	0x3f3656f0	0.71226406
41	0x3f628ab1	0.88492876
42	0x3e20db1d	0.15708585
43	0x3f26e760	0.651968
44	0x3d9af05f	0.075653784
45	0xbe916a47	-0.28401396
46	0xbeab4fca	-0.33459312
47	0x3f1ede3e	0.62057865
48	0x3f7c7109	0.9860998
49	0x3f525463	0.82160014
50	0xbf159457	-0.58429474
51	0x3ece1943	0.40253648
52	0xbf3a4bf6	-0.7277216
53	0xbf4f9f74	-0.8110268
54	0xbf572b5f	-0.84050554
55	0xbda5e3c1	-0.08100081
56	0xbe85501d	-0.26037684
57	0xbf322571	-0.6958838
58	0xbe1ede35	-0.15514453
59	0xbe1d13d3	-0.15339594
60	0x3e25f9c2	0.16208556
61	0x3f01e320	0.5073719
62	0xbeb9cf22	-0.36290842
63	0xbe97846a	-0.2959321

model.layer_0.bias f4 [64]
0	0x3efb5791	0.49090245
1	0x3f771c88	0.9652791
2	0xba0692fd	-0.00051335973
3	0x3f6024a8	0.87555933
4	0xbf24674c	-0.6422012
5	0xbde3ae18	-0.1111719
6	0xbf1e826d	-0.61917764
7	0xbd13a06d	-0.036041666
8	0xbf73b862	-0.9520322
9	0x3f27d9fb	0.65566987
10	0x3f1fa1c9	0.6235624
11	0xbe0bdecc	-0.13659209
12	0xbdd2dcb2	-0.102960005
13	0xbef370ee	-0.47547096
14	0xbf0b39c8	-0.5438504
15	0xbef51779	-0.4786947
16	0x3f08cc96	0.53437173
17	0xbf6a438b	-0.9150931
18	0x3e8704ca	0.2637084
19	0xbea3f4da	-0.32022744
20	0xbf12dacc	-0.5736511
21	0x3e0c281e	0.13687178
22	0x3dc719ac	0.097216934
23	0x3f3d4a4e	0.73941505
24	0x3f6f5352	0.9348651
25	0x3e10fec2	0.14159682
26	0xbe5b503e	-0.21417329
27	0xbf7381f6	-0.9512018
28	0x3e8064ab	0.25076804
29	0x3eac6933	0.3367401
30	0xbeff3e05	-0.49852005
31	0x3f58bbe0	0.84661674
32	0xbf699e2c	-0.91256976
33	0x3b2a70a3	0.0026007078
34	0x3f6a320a	0.91482604
35	0xbe1ffd16	-0.15623888
36	0x3f310b67	0.69158024
37	0x3ec0d956	0.37665814
38	0x3d5a8b93	0.053355765
39	0xbec0ec8f	-0.3768048
40	0xbecd19d6	-0.40058774
41	0x3d3b3f13	0.04571445
42	0x3f8b474b	1.0881132
43	0xbea3be84	-0.3198129
44	0x3e58fd45	0.21190365
45	0xbee06785	-0.4382898
46	0xbec5626c	-0.38551652
47	0x3e0d1593	0.13777761
48	0xbef2cc11	-0.47421315
49	0x3e2aa415	0.16664155
50	0xbecbcfc5	-0.39806953
51	0x3f1c705e	0.6110896
52	0x3f207fc3	0.6269495
53	0x3ee69612	0.4503637
54	0xbe8806e3	-0.26567754
55	0xbd95500a	-0.07290657
56	0xbd9cb76d	-0.07652173
57	0x3eee4dea	0.4654382
58	0xbf401d8d	-0.7504509
59	0xbf7405fd	-0.9532164
60	0xbf105358	-0.5637717
61	0x3f6e7e35	0.93161327
62	0xbf70233c	-0.93803763
63	0x3e86f5a3	0.2635928

model.layer_1.weight f4 [64, 64]
0	0x3c341d30	0.010993287
1	0xbdd97772	-0.106184855
2	0x3d958bef	0.07302081
3	0xbdf6235b	-0.12018462
4	0x3e2cf662	0.16890863
5	0x3d37e88c	0.04489951
6	0xbd2c46e3	-0.04205979
7	0x3b9bb581	0.0047518616
8	0x3e03389c	0.12814564
9	0xbda0b519	-0.07847042
10	0xbe0c3829	-0.13693298
11	0x3d371e03	0.044706356
12	0x3e00cb29	0.125775
13	0xbd949e95	-0.072568096
14	0x3def5fa4	0.11688164
15	0x3e87a222	0.26490885
16	0x3d637344	0.055529848
17	0xbcbdc9b5	-0.02316747
18	0x3cd011f5	0.025399188
19	0x3d8f90fd	0.07010076
20	0x3e00b01c	0.1256718
21	0x3bfbf50c	0.007689124
22	0x3da4f3fc	0.08054349
23	0x3deb8a91	0.11501039
24	0xbe0a393e	-0.13498399
25	0xbdc838ff	-0.09776496
26	0x3df2d16e	0.11856352
27	0x3d856fe7	0.06515484
28	0x3d29e46e	0.041477613
29	0x3c9e13bd	0.019296521
30	0xbb7b8a9b	-0.0038382176
31	0xbd700e8b	-0.05860762
32	0x3db1126a	0.0864609
33	0x3c5d5cc9	0.013510891
34	0xbdb65fa3	-0.0890496
35	0xbdccbd68	-0.09997064
36	0xbc3c39d6	-0.011488399
37	0xbe0ebf7e	-0.13940236
38	0x3d571a36	0.05251523
39	0xbd8e43d3	-0.0694653
40	0x3d51e7b5	0.051246364
41	0xbce37115	-0.027763883
42	0xbe2b6380	-0.16737175
43	0xbbc251f5	-0.00593018
44	0xbe129566	-0.14314803
45	0x3c924fc1	0.017860295
46	0x3dd0f995	0.10203854
47	0x3dbb651c	0.091501445
48	0xbd5f71db	-0.05455194
49	0x3cca425a	0.024689842
50	0x3e0944e4	0.13405186
51	0x3cff6126	0.031174254
52	0x3dc9b6c8	0.09849316
53	0x3d768997	0.06018981
54	0x3e1b89a2	0.15189222
55	0xbde2b254	-0.1106917
56	0xbc1d018f	-0.009582891
57	0x3d68ba48	0.056818277
58	0xbb89bbc8	-0.0042032935
59	0xbc14c843	-0.009080949
60	0xbd5397fb	-0.05165861
61	0x3d235e2b	0.039884727
62	0x3ce6efb2	0.028190468
63	0xbd289999	-0.041162107
64	0xbcd5b49f	-0.026087103
65	0xbb36548c	-0.002782139
66	0x3df1b34e	0.11801778
67	0xbd02bd84	-0.031919017
68	0xbd9f93ea	-0.07791884
69	0x3e0b4b00	0.13602829
70	0x3dcfff7e	0.10156153
71	0x3e03ff31	0.12890317
72	0x3de6a48d	0.11261854
73	0x3d0d5439	0.03450415
74	0x3bf1f20d	0.007383591
75	0x3d8e3728	0.06944114
76	0x3d80becc	0.062863916
77	0x3d796e08	0.06089595
78	0xbdca6e45	-0.098843135
79	0xbdad242a	-0.08454163
80	0x3d98c664	0.07459715
81	0x3dd7cfd2	0.105376855
82	0xbe023909	-0.1271707
83	0xbe0d8b9c	-0.13822788
84	0xbca36565	-0.01994581
85	0xbdbf1b7d	-0.09331415
86	0xbc4bd74a	-0.012441466
87	0x3c9e650f	0.019335298
88	0xbd9cd14d	-0.076571085
89	0x3dd8afea	0.10580428
90	0xbd73d1cb	-0.059526246
91	0x3d44e74f	0.048072156
92	0xbd76b349	-0.060229573
93	0x3e0e3190	0.13886094
94	0xbda91ff8	-0.08258051
95	0x3dcfce98	0.101468265
96	0x3db512f4	0.08841506
97	0x3c718423	0.0147409765
98	0x3cbbd39d	0.022928054
99	0xbdf157a8	-0.11784297
100	0x3c206f07	0.009792096
101	0xbd199541	-0.037495855
102	0xbd0239f0	-0.031793535
103	0xbdfed1a3	-0.12442329
104	0xbd0c5b88	-0.03426698
105	0xbac3626a	-0.0014906649
106	0x3db3d493	0.0878078
107	0x3d611da1	0.054959897
108	0x3a93342b	0.0011230757
109	0xbe05a4b9	-0.13051118
110	0xbd232b5a	-0.039836265
111	0xbd8964d9	-0.06708688
112	0xbd3503f5	-0.044193227
113	0x3e157a2c	0.14597386
114	0x3d632f56	0.055465065
115	0x3dce077e	0.10060023
116	0x3db88a81	0.090107925
117	0x3dd43b35	0.10362855
118	0x3d8d058f	0.06885826
119	0x3d0345ac	0.032048866
120	0x3cb1b95e	0.021694835
121	0xbcca3ad0	-0.024686247
122	0x3da2517b	0.079256974
123	0xbdd55f2d	-0.10418544
124	0x3da3eccb	0.08004149
125	0x3b459ccc	0.0030153273
126	0xbdcc5b0a	-0.09978302
127	0x3c44e3c4	0.012017194
128	0x3de7f872	0.11326684
129	0x3d59318d	0.05302577
130	0xbca39b3d	-0.019971484
131	0x3e0b48ea	0.13602033
132	0xbdc264f1	-0.09491909
133	0x3d1029fd	0.035196293
134	0x3c22dc8c	0.009940278
135	0x3dca6563	0.09882619
136	0xbcc501fd	-0.0240488
137	0xbc924663	-0.017855829
138	0xbb5b82fa	-0.0033494816
139	0xbd04cd0f	-0.03242212
140	0xbd74672b	-0.0596687
141	0xbdaa80ea	-0.0832537
142	0x3da9c132	0.08288802
143	0xbe702def	-0.23455022
144	0x3d4eac1b	0.0504571
145	0xba7c55c3	-0.00096258166
146	0xbcfab558	-0.03060405
147	0xbe0f3727	-0.13985883
148	0xbe15a743	-0.14614587
149	0x3c52822b	0.012848417
150	0xbd2d1f0c	-0.042265937
151	0x3caf5390	0.02140215
152	0xbdb67ac1	-0.08910132
153	0x3de0d687	0.10978418
154	0xbdf1126e	-0.11771093
155	0xbd0d191b	-0.03444777
156	0x3dc6b2f2	0.097021
157	0x3dc105a0	0.09424901
158	0xbda20e67	-0.07912903
159	0x3defb9ba	0.117053464
160	0xbd1cae02	-0.038251884
161	0xbda1fa16	-0.07909028
162	0x3e19bd56	0.15013632
163	0x3d96b064	0.073578626
164	0xbcae0317	-0.021241708
165	0x3db0f8bb	0.086411916
166	0xbe088879	-0.1333331
167	0x3d0fce9e	0.035109155
168	0x3c969f28	0.018386438
169	0x3da83b07	0.082143836
170	0x3e4a80f2	0.19775751
171	0xbdd3f255	-0.103489555
172	0xbd907c57	-0.07054966
173	0x3d5fc1bc	0.05462812
174	0xbde2ae43	-0.11068394
175	0x3ce00fce	0.027351286
176	0x3c0262f9	0.007958167
177	0x3ddc16ca	0.10746534
178	0x3ce2930b	0.027658006
179	0xbc665e2b	-0.014060537
180	0xbca268e5	-0.019825408
181	0x3bbf6201	0.0058405404
182	0x3c438256	0.01193293
183	0xbc5c98d2	-0.01346417
184	0x3d8c6c1f	0.0685656
185	0xbc379322	-0.011204513
186	0xbcf77d21	-0.030211033
187	0xbdc0170f	-0.09379398
188	0x3c9b8208	0.018982902
189	0xbd3bab44	-0.04581763
190	0xbc10a693	-0.008828777
191	0xbd40e917	-0.04709729
192	0xbd49de30	-0.04928416
193	0x3d3b49de	0.045724742
194	0x3d8cbf75	0.06872455
195	0x3ca86b2c	0.020558916
196	0xbd559081	-0.052139763
197	0x3d3c29e7	0.0459384
198	0xbb0c444f	-0.002140302
199	0xbc17a931	-0.009256647
200	0xbdc66a63	-0.096882604
201	0x3da1c05f	0.0789802
202	0x3e03df1a	0.12878075
203	0xbca685af	-0.020327417
204	0xbc9851ec	-0.01859375
205	0x3cbc8870	0.023014277
206	0x3d37fd87	0.044919517
207	0xbda745f4	-0.081676394
208	0x3dd4a73d	0.10383461
209	0x3d925c0c	0.07146463
210	0x3d0254dc	0.03181921
211	0x3d086165	0.033296008
212	0x3db33852	0.087509766
213	0x3da170f1	0.0788287
214	0xbd37f284	-0.044909015
215	0x3d9b69ec	0.07588562
216	0x3dc07a4b	0.093983255
217	0x3d93eb68	0.072226346
218	0x3db1fe33	0.08691063
219	0x3b371be2	0.0027940203
220	0x3e03f6ad	0.12887068
221	0x3de73a8a	0.11290462
222	0x3dc41ae4	0.095754415
223	0x3dfe92ed	0.124303676
224	0x3d89377d	0.06700037
225	0xbe0964f8	-0.13417423
226	0x3cb44a1c	0.022007994
227	0xbd8760f1	-0.06610287
228	0x3e0c54b9	0.13704194
229	0x3e11aea1	0.14226772
230	0xbdff2527	-0.12458258
231	0xbd4b334d	-0.04960947
232	0xbc14d182	-0.009083154
233	0x3d365900	0.04451847
234	0x3d5f47c1	0.05451179
235	0x3df81a77	0.12114423
236	0x3d9b1e09	0.07574088
237	0xbdc380ef	-0.095460765
238	0x3d75dbb1	0.060023967
239	0x3e12fe28	0.14354765
240	0xbb37c69c	-0.0028041964
241	0x3e0f6a6c	0.1400544
242	0xbc83f515	-0.016108075
243	0x3d036ab3	0.03208418
244	0xbd25fbb8	-0.04052326
245	0xbc196f2b	-0.009364883
246	0x3c0cf95a	0.008604372
247	0x3d7be2ec	0.061495706
248	0x3d74b140	0.05973935
249	0x3df8d33d	0.121496655
250	0x3d0c3aef	0.03423589
251	0xbd8d8918	-0.06910914
252	0x3bac40ca	0.005256747
253	0x3d7c2acf	0.061564263
254	0xbd983acb	-0.07433089
255	0x3b79b313	0.0038101121

model.layer_1.bias f4 [64]
0	0xbcc43913	-0.023952996
1	0xbce8e2a6	-0.028428387
2	0xbc2fd59e	-0.010732083
3	0xbce75448	-0.02823843
4	0x3e2c100c	0.16802996
5	0x3dcb1636	0.09916346
6	0x3db08270	0.08618629
7	0xbd6f9cbd	-0.058499087
8	0xbdb71e84	-0.08941367
9	0xbd1fbc60	-0.038998008
10	0x3c9c8874	0.019108035
11	0x3b57a144	0.0032902518
12	0x3c7433d6	0.014904937
13	0x3d8f3280	0.06992054
14	0x3cbaf1b8	0.022820339
15	0x3d8f8cc1	0.070092686
16	0x3da5a90a	0.08088882
17	0x3de88cb4	0.11354962
18	0x3d972f1e	0.07382034
19	0x3db2bbd9	0.08727235
20	0xbd45c4d2	-0.048283406
21	0xbd7f348d	-0.062305976
22	0xbd6f59cf	-0.058435258
23	0xbda4f35e	-0.08054231
24	0xbb9ddbca	-0.0048174607
25	0x3c5b2bcf	0.013377144
26	0x3d531db7	0.05154201
27	0x3b22cdb7	0.0024841854
28	0xbdf128e7	-0.1177538
29	0xbde80602	-0.11329271
30	0x3d8c19ba	0.068408445
31	0xbc863e27	-0.016387058
32	0xb8ec2c9d	-0.00011261667
33	0x3d71d620	0.059042096
34	0x3cbd066f	0.023074357
35	0x3d1ae676	0.03781744
36	0x3e0cc29c	0.13746113
37	0xbc9639ca	-0.018338103
38	0xbdb0f8ff	-0.08641242
39	0x39eeb14e	0.00045527
40	0xbc70b731	-0.014692114
41	0xbc89d391	-0.016824516
42	0x3d508aa8	0.050913483
43	0xbd7abc31	-0.06121463
44	0xbdbf6bf5	-0.09346763
45	0xbdd70946	-0.10499816
46	0xbcc205dd	-0.023684436
47	0xbe164840	-0.14675999
48	0x3e473135	0.19452365
49	0xbe071634	-0.13192064
50	0xbde3bfea	-0.11120589
51	0x3dd2cf7e	0.10293482
52	0x3c99fd08	0.018797413
53	0x3d68e75c	0.056861266
54	0xbe09615a	-0.13416043
55	0x3b3e8dee	0.0029076296
56	0xbd7df0d4	-0.06199725
57	0xbc125961	-0.008932442
58	0xbd469ae3	-0.048487555
59	0x3dbd736a	0.09250529
60	0xbe2e3322	-0.17011693
61	0xbc914182	-0.017731432
62	0x3dce0156	0.100588486
63	0x3da610b3	0.08108654

model.layer_2.weight f4 [64, 64]
0	0x3e10fca3	0.14158873
1	0x3c898905	0.016788969
2	0xbdc0d1ce	-0.09415017
3	0x3dcab371	0.09897507
4	0xbd959f93	-0.07305827
5	0xbdad0e16	-0.08449952
6	0xbcdba68c	-0.026812814
7	0xbd9bc592	-0.07606043
8	0xbddea24f	-0.10870802
9	0xbde8fc46	-0.11376242
10	0xbd3b0dbe	-0.045667402
11	0xbd8ddad8	-0.06926507
12	0xbd55ea6f	-0.052225526
13	0xbd06e096	-0.032929026
14	0xbc0df4c9	-0.008664318
15	0x3d37fced	0.044918943
16	0xbb9fcdc8	-0.004876826
17	0x3da445d9	0.08021135
18	0x3d28b629	0.041189346
19	0xbc1d5df3	-0.009604919
20	0xbcf2c8fd	-0.029636854
21	0x3d1d1d67	0.03835812
22	0xbc2242d1	-0.009903626
23	0xbb4f3244	-0.0031615654
24	0xbb0e6f87	-0.0021733956
25	0x3caf2d46	0.021383893
26	0x3d8924e0	0.066964865
27	0x3d7e3382	0.06206084
28	0x3d893500	0.06699562
29	0x3db0b9c9	0.08629186
30	0x3dd6be0e	0.10485469
31	0xbdb72305	-0.08942226
32	0xbe0522f9	-0.13001622
33	0xbd98fd37	-0.07470172
34	0xbdb566ff	-0.088575356
35	0xbda7ab24	-0.08186939
36	0x3daae82a	0.08345063
37	0x3cbec47a	0.023287047
38	0xbdc1d112	-0.09463705
39	0xbd1920e0	-0.037384868
40	0x3c2bd993	0.010488885
41	0x3dadd042	0.08486988
42	0xbcc1f3ec	-0.023675881
43	0xbdd7bafd	-0.10533712
44	0x3de9e06c	0.11419758
45	0x3bc0b15c	0.005880518
46	0x3dc63fbd	0.09680126
47	0x3ddf89db	0.10914966
48	0x3be3fe51	0.006957807
49	0x3d563141	0.052293066
50	0xbde96ca7	-0.11397677
51	0x3d1b0bcc	0.037853047
52	0x3d5b54e2	0.053547747
53	0x3cf70fe0	0.030158937
54	0xbceffff8	-0.02929686
55	0xbd3e9406	-0.046527885
56	0x3a05d1d1	0.00051048124
57	0x3da48803	0.08033755
58	0x3d699eb2	0.05703611
59	0xbdb6e09b	-0.08929559
60	0x3dca6b71	0.09883774
61	0x3d652499	0.055943105
62	0x3a90947d	0.0011030581
63	0xbda703c0	-0.08155012
64	0xbe1a0d34	-0.15044099
65	0x3c2da0e7	0.010597444
66	0x3cdbc82c	0.026828848
67	0x3d670dee	0.05640977
68	0x3e383119	0.1798748
69	0x3df2b3e5	0.118507184
70	0x3daaa3a1	0.08331991
71	0x3dcb8cb7	0.099389486
72	0xbca7727f	-0.020440338
73	0xbaa34997	-0.0012457845
74	0x3d85533d	0.06510017
75	0x3c4f0c37	0.01263719
76	0x3d9d8893	0.07692065
77	0xbacdc3dc	-0.001569863
78	0xbe10bad9	-0.14133777
79	0x3c9edcdc	0.019392423
80	0xbce4e9d1	-0.027943524
81	0x3d9bc8a8	0.076066315
82	0x3e3afb10	0.18259835
83	0xbce7cca1	-0.028295817
84	0xbdca10a7	-0.098664574
85	0xbdd6f51b	-0.10495969
86	0xbd88c7b6	-0.06678717
87	0x3d8a4595	0.06751553
88	0xbcc01471	-0.023447247
89	0xbd2dbf03	-0.04241849
90	0x3d9feb8f	0.07808601
91	0xbcef1890	-0.029186517
92	0xbc2b2aa7	-0.010447181
93	0xbddff7e4	-0.10935953
94	0x3d8d6473	0.06903925
95	0xbdd8a737	-0.10578769
96	0x3dd07468	0.10178453
97	0x3db72be1	0.08943916
98	0xbdb3f75e	-0.08787416
99	0xbdc4262b	-0.095775925
100	0x3e1f6b0f	0.15568183
101	0xbdb35ac8	-0.087575495
102	0xbe4f8065	-0.20263822
103	0xbd81b14e	-0.06332646
104	0xbd4f289b	-0.050575834
105	0x3bab87e6	0.005234706
106	0x3ddb02e7	0.10693913
107	0xbdb2f308	-0.08737761
108	0xbcb0a0be	-0.021561023
109	0x3dfd3b2f	0.12364804
110	0xbe086a69	-0.13321842
111	0xbdea52f0	-0.114416
112	0x3da517b4	0.08061162
113	0xbdd61df6	-0.10454933
114	0xbdc5cae0	-0.09657836
115	0xbdd4325a	-0.10361166
116	0x3d06b57c	0.03288792
117	0xbda7d4d4	-0.081948906
118	0xbdf49d24	-0.11944035
119	0x3d85c004	0.06530765
120	0xbd544ac5	-0.05182912
121	0xbd315718	-0.04329595
122	0xbca443c8	-0.020051852
123	0x3cf881b0	0.030335277
124	0xbdc92ecf	-0.09823381
125	0xbd00e185	-0.031465072
126	0x3d5aa1e8	0.053377062
127	0xbd727b64	-0.059199706
128	0x3cd900e9	0.026489692
129	0x3ddcd9c3	0.10783722
130	0x3d80f7c7	0.0629726
131	0xbdc1863e	-0.09449433
132	0xbe014aa1	-0.12626125
133	0xbd1ddae1	-0.038538817
134	0xbd95a1e2	-0.07306267
135	0x3cc0b0fe	0.023521896
136	0xbd24773d	-0.040152777
137	0x3d291d04	0.041287437
138	0x3e01ea07	0.1268693
139	0x3d8cbaa8	0.06871539
140	0xbe077428	-0.13227904
141	0x3e105871	0.14096238
142	0xbca4a47a	-0.02009796
143	0xbd1c0ec9	-0.038100038
144	0x3b42d8c7	0.002973126
145	0xbbe659d1	-0.00702975
146	0x3d80ad59	0.062830634
147	0xbc1be494	-0.0095149465
148	0xbc34d4ba	-0.011037046
149	0xbd5f39e3	-0.054498564
150	0xbd0aa840	-0.033851862
151	0xbd4b1466	-0.04958
152	0x3d9d37ec	0.07676682
153	0x3deb5102	0.114900604
154	0xbd3ee1f0	-0.04660219
155	0xbdb62955	-0.08894602
156	0xbdaed773	-0.085371874
157	0xbdd4d2a2	-0.103917375
158	0xbdea55f3	-0.11442175
159	0x3cee5613	0.029093778
160	0x3dc6e947	0.09712463
161	0x3d08e833	0.033424567
162	0xbd1403bd	-0.036136378
163	0xbbf817f9	-0.007571217
164	0xbd966358	-0.07343167
165	0xbd3dc10a	-0.046326675
166	0x3c154b99	0.009112262
167	0x3d60e219	0.054903124
168	0xbce1475a	-0.027499843
169	0x3d0a4f9c	0.033767328
170	0xbe01a2d1	-0.12659766
171	0xbd0cf250	-0.034410775
172	0x3d9ce67c	0.07661149
173	0xbdb6852f	-0.089121215
174	0xbd8f5567	-0.06998711
175	0x3df533c5	0.11972765
176	0x3dbb2aec	0.09139046
177	0x3ddeccdd	0.10878918
178	0xbdade2a0	-0.08490491
179	0x3c86b8dc	0.01644557
180	0x3ac3a743	0.0014927167
181	0xbd858579	-0.065195985
182	0x3ca6882d	0.020328606
183	0xbd8e0ab9	-0.06935639
184	0x3d8be2e6	0.06830387
185	0x3de42855	0.11140505
186	0xbd1ae82b	-0.03781907
187	0xbe0ae09d	-0.13562246
188	0x3d19713b	0.0374615
189	0x3ca09f9d	0.01960736
190	0x3d9643eb	0.07337173
191	0xbd98a687	-0.074536376
192	0xbe08a22b	-0.13343112
193	0x3dfe6140	0.12420893
194	0x3dbf45bf	0.09339475
195	0xbd9c4be3	-0.07631662
196	0x3d63a058	0.055572838
197	0x3db4eec1	0.08834601
198	0x3d7efb8b	0.06225161
199	0xbca21bca	-0.019788641
200	0xbdf64786	-0.12025361
201	0xbd323260	-0.043505073
202	0x3cda4ee5	0.026648948
203	0xbdc544b7	-0.09632247
204	0x3d97bc06	0.074089095
205	0xbc8a7f27	-0.016906334
206	0xbb884929	-0.004159112
207	0x3d9234d7	0.07138985
208	0xbd8f57c1	-0.069991596
209	0xbe08cff3	-0.13360576
210	0x3d533d30	0.051572025
211	0x3e01df6c	0.12682885
212	0xbd2be67b	-0.04196785
213	0x3cab14e2	0.020883981
214	0xbde2a729	-0.110670395
215	0x3d183771	0.037162248
216	0xbca6779c	-0.020320706
217	0xbc04cfdb	-0.008106197
218	0xbd65dba9	-0.056117687
219	0xbdb51f22	-0.08843829
220	0x3d80cfa7	0.062896065
221	0xbe001b1b	-0.1251034
222	0x3c7d8e87	0.015475876
223	0xbd9ba725	-0.0760024
224	0xbd8f5069	-0.06997759
225	0x3d4430ac	0.04789798
226	0xbd3b7e37	-0.045774665
227	0xbde0a8ae	-0.10969673
228	0x3d90a821	0.07063318
229	0xbdf49e32	-0.11944236
230	0xbdd260ce	-0.1027237
231	0x3bcb53bb	0.00620505
232	0xbd6864ad	-0.056736637
233	0x3dd79168	0.10525781
234	0xbd169b4e	-0.036769204
235	0xbdefc75e	-0.11707948
236	0x3dff55af	0.12467515
237	0x3d883878	0.066513956
238	0xbd77d25e	-0.060503356
239	0xbddf283f	-0.10896348
240	0xbd8a16ab	-0.06742605
241	0x3d4e215f	0.050324794
242	0xbd426d6f	-0.047467645
243	0x3d0bf59a	0.03416977
244	0x3ce2fa9d	0.027707392
245	0xbda1a1d8	-0.07892197
246	0x3bfac93f	0.007653385
247	0x3c43778c	0.011930358
248	0x3d96c907	0.07362562
249	0x3df2f4a9	0.118630715
250	0xbd49fc6d	-0.049312998
251	0x3d5d708b	0.054062407
252	0x3df7ad24	0.12093571
253	0xbd915db0	-0.070979476
254	0x3e0af6ef	0.1357076
255	0x3d8c1584	0.06840041

model.layer_2.bias f4 [64]
0	0xbd3f0714	-0.04663761
1	0x3debb417	0.11508959
2	0x3d7c562b	0.061605614
3	0xbbb9550a	-0.0056558894
4	0xbca6ab31	-0.020345302
5	0x3daec1a7	0.0853303
6	0xbc9555dc	-0.018229418
7	0x3e21fb33	0.15818481
8	0xbd4d8b4d	-0.050181676
9	0xbd0c45f4	-0.0342464
10	0xbdf685fd	-0.12037275
11	0xbe007341	-0.12543966
12	0xbbe699e4	-0.007037388
13	0x3dd20d81	0.10256482
14	0xbe17429e	-0.14771506
15	0xbda61642	-0.08109714
16	0x3d6b2723	0.05741037
17	0x3d8d7187	0.06906419
18	0xbda6959a	-0.08134003
19	0x3bdb1e2a	0.0066869454
20	0xbc458d30	-0.0120575875
21	0x3d681995	0.056665022
22	0x3d8b4051	0.06799377
23	0x3da2f9db	0.079578124
24	0xbd89e373	-0.067328356
25	0xbc8e9d93	-0.017409122
26	0xbdac5489	-0.08414561
27	0xbc8be761	-0.017078103
28	0xbd992ee3	-0.07479646
29	0xbdf83028	-0.1211856
30	0xbdf4478a	-0.119277075
31	0xbd8be1fe	-0.06830214
32	0xbd6177ba	-0.05504582
33	0xbd72063e	-0.059087984
34	0xbc1b97bf	-0.009496628
35	0x3d52e27b	0.05148552
36	0xbd92d039	-0.071686216
37	0xbd6c05b4	-0.057622626
38	0xbdda471c	-0.10658094
39	0xbc82ce95	-0.015967647
40	0x3e0c367e	0.13692662
41	0x3c4b375d	0.012403336
42	0x3ba174e5	0.004927265
43	0xbd3520dd	-0.044220794
44	0x3dd15f16	0.10223214
45	0xbd9f1272	-0.0776719
46	0x3da30d1d	0.079614855
47	0xbde9df20	-0.11419511
48	0x3b93041e	0.004486575
49	0xbde31955	-0.11088816
50	0xbdf537eb	-0.11973556
51	0xbddcb1a9	-0.107760735
52	0xbdf37096	-0.118867084
53	0xbd4a69b2	-0.049417205
54	0x3e3a2ff4	0.18182355
55	0x3dc75f06	0.09734921
56	0xbd6078f2	-0.054802842
57	0xbdf1abed	-0.1180037
58	0x3dbd64c0	0.09247732
59	0x3d48f25d	0.04905926
60	0xbdc840bb	-0.09777971
61	0xbd7df640	-0.06200242
62	0x3e3e2447	0.18568526
63	0xbd7acd7b	-0.061231118

model.layer_3.weight f4 [5, 64]
0	0xbdb50fdd	-0.08840916
1	0x3e641cc6	0.22276601
2	0xbd4223c5	-0.047397394
3	0x3d48f4b3	0.04906149
4	0xbe0d3b4b	-0.1379215
5	0xbeaf9c10	-0.34298754
6	0xbe188421	-0.14894153
7	0x3f44bcf1	0.768508
8	0xbd7571c5	-0.059922952
9	0xbeb3f6d0	-0.3514924
10	0xbe6e5e6a	-0.23278204
11	0xbda02a22	-0.07820536
12	0xbd23980a	-0.039939918
13	0x3e7d868d	0.24758358
14	0xbe901298	-0.28139186
15	0xbf141006	-0.5783695
16	0xbd690ddd	-0.056897987
17	0x3ef5bc7e	0.4799537
18	0xbe18da42	-0.14927009
19	0xbe39c7b4	-0.18142587
20	0x3da451b1	0.08023394
21	0x3eb026a9	0.34404495
22	0x3e371d36	0.17882237
23	0xbd33d437	-0.043903556
24	0xbd99c6db	-0.07508632
25	0x3f18b453	0.5965015
26	0x3e93a410	0.28836107
27	0xbe60a4ef	-0.21937917
28	0xbed66cc5	-0.4187986
29	0xbedf13d8	-0.43569827
30	0xbe102672	-0.14077166
31	0xbe497421	-0.19673206
32	0x3ec91d4c	0.39280164
33	0x3e3e9bc7	0.18614112
34	0x3d39c7f9	0.045356724
35	0x3e97c242	0.29640394
36	0x3ddfb237	0.10922664
37	0xbe7f5cd8	-0.24937761
38	0xbee8a466	-0.45437926
39	0xbe12a561	-0.143209
40	0x3e8846ab	0.26616415
41	0xbe89d259	-0.26918295
42	0xbe5ccfe7	-0.21563683
43	0xbe4b102a	-0.19830385
44	0x3e1f10c7	0.15533744
45	0xbeab0269	-0.33400276
46	0x3e1f4c5c	0.15556473
47	0xbdffbc04	-0.12487033
48	0x3ddcaaa6	0.10774736
49	0xbc322501	-0.01087308
50	0xbb9ba4ff	-0.0047498937
51	0x3cd5a49a	0.026079465
52	0xbe03ea3c	-0.12882322
53	0x3d01f45f	0.03172719
54	0x3eea9c96	0.4582259
55	0x3e9e6eae	0.30943817
56	0x3e9645f0	0.29350233
57	0xbe8bcb3f	-0.27303502
58	0xbd2a75ec	-0.041616365
59	0xbec17baf	-0.37789676
60	0xbc62ae81	-0.01383555
61	0xbdb6fdbf	-0.08935117
62	0x3ea04678	0.31303763
63	0xbe50d216	-0.20392641
64	0x3da7e4e8	0.08197957
65	0x3d9f44ee	0.07776819
66	0xba65e938	-0.0008770409
67	0x3dbc1ef7	0.091855936
68	0xbace0ea4	-0.0015720916
69	0x3d248114	0.04016216
70	0x3cbd4f4a	0.023109097
71	0xbc8e5ff7	-0.017379744
72	0xbcc6b6d0	-0.024257094
73	0xbd88297d	-0.06648538
74	0xbd58768d	-0.052847434
75	0x3cc81470	0.024423808
76	0x3da80865	0.08204726
77	0x3e03882e	0.12844917
78	0xbc865b12	-0.016400848
79	0x3dc7b187	0.097506575
80	0x3bd55657	0.0065105367
81	0xbdbe48fa	-0.09291263
82	0x3aed613b	0.0018110642
83	0xbd46bd95	-0.048520643
84	0x3dd4b1e2	0.10385491
85	0xbd48adb4	-0.04899378
86	0x3dd395d4	0.10331312
87	0x3b9b1bc4	0.0047335345
88	0x3db791ac	0.089633316
89	0x3dd69328	0.104772866
90	0x3dfae146	0.12249999
91	0x3d800889	0.06251628
92	0xbdaaa06d	-0.0833138
93	0xbe02e746	-0.12783536
94	0x3dd614d0	0.104531884
95	0xbdb2001e	-0.086914286
96	0xbdbbde3d	-0.09173248
97	0xb9023e89	-0.00012421062
98	0xbd53eaad	-0.051737476
99	0x3d38de68	0.045133978
100	0xbd940082	-0.07226659
101	0x3c83fa46	0.01611055
102	0x3db0ecfa	0.0863895
103	0xbc03f7c5	-0.008054678
104	0xbc434575	-0.011918415
105	0xbdfbf263	-0.12302091
106	0xbc508490	-0.012726918
107	0x3d9d390e	0.07676898
108	0x3dde4199	0.108523555
109	0x3de01f4f	0.10943472
110	0xbde43a3a	-0.11143918
111	0xbdd49fc2	-0.10382034
112	0x3df2be2a	0.11852677
113	0x3c23036c	0.009949546
114	0xbcd20b9d	-0.025640303
115	0x3d0e961c	0.034811124
116	0xbdea860e	-0.1145135
117	0xbde2a637	-0.11066859
118	0xbc1187ef	-0.008882507
119	0x3db09209	0.08621604
120	0xbce537d5	-0.027980724
121	0xbdf148a5	-0.11781434
122	0xbd7161cd	-0.05893116
123	0xbd836c10	-0.06417096
124	0x3d1e9b75	0.038722474
125	0x3d3c031b	0.0459014
126	0x3c78bec9	0.0151822055
127	0x3d51e2f8	0.051241845
128	0x3d605517	0.054768648
129	0xbdc4c906	-0.09608655
130	0xbcad480e	-0.021152522
131	0xbc82cc4a	-0.015966553
132	0x3dc1e6cb	0.094678484
133	0xbdd1cf75	-0.102446474
134	0x3da694ee	0.08133875
135	0x3da2638a	0.07929142
136	0xbdc6d7f2	-0.09709157
137	0x3d01b93f	0.031670805
138	0xbcc69a74	-0.02424357
139	0xbd791a44	-0.060816064
140	0xbcf20cd2	-0.029547129
141	0x3d0f15df	0.034932967
142	0x3cd1ca91	0.025609287
143	0x3d03d5aa	0.032186188
144	0x3d808e75	0.062771715
145	0x3dbd1915	0.092333
146	0x3de06a1a	0.10957737
147	0xbdec73b6	-0.115455076
148	0xbdd8dd21	-0.10589052
149	0xbbeff4c2	-0.0073228786
150	0xbd58d6ca	-0.052939214
151	0x3da231b4	0.07919636
152	0x3de648e0	0.112443686
153	0xbd9af8f3	-0.075670145
154	0xbe06bd4a	-0.13158146
155	0xbd85bb38	-0.0652985
156	0xbcbbc8e1	-0.022922935
157	0xbd6da2e9	-0.05801669
158	0xbdb2bc04	-0.087272674
159	0xbde35ce6	-0.11101703
160	0x3dd44e17	0.10366457
161	0x3d620b47	0.055186536
162	0x3c56681f	0.013086348
163	0x3dd03ca0	0.10167813
164	0xbc65b342	-0.014019789
165	0x3d9679d0	0.07347453
166	0xbdba1335	-0.09085695
167	0x3d9930ae	0.07479988
168	0xbe0d31c7	-0.1378852
169	0x3d174f9a	0.03694115
170	0x3d9ea1bc	0.07745692
171	0xbd8aa79b	-0.067702495
172	0x3cbc8699	0.0230134
173	0xbd661705	-0.056174297
174	0x3d8f1c1f	0.069877855
175	0xbc39d489	-0.011342176
176	0xbd173bbb	-0.036922198
177	0xbdd923fe	-0.10602568
178	0xba1f918e	-0.0006087058
179	0x3ba12640	0.00491789
180	0xbdf86e2e	-0.1213039
181	0x3c417ea1	0.011809976
182	0xbc45196b	-0.012029986
183	0xbdc2efaa	-0.095183685
184	0xbdf1a4c3	-0.11799004
185	0x3d55581b	0.052085977
186	0xbcfd42e8	-0.030915692
187	0xbd3e4ba7	-0.046458866
188	0x3d92422c	0.071415275
189	0x3d726b4d	0.05918436
190	0x3d1a8022	0.037719853
191	0x3d94160a	0.07230766
192	0x3d0441b7	0.032289233
193	0x3d474d99	0.048657987
194	0x3da4be28	0.08044082
195	0xbdbf3a03	-0.09337237
196	0x3d7fc5cc	0.062444493
197	0xbdcfa304	-0.10138515
198	0x3d4d509f	0.050125714
199	0x3d43db06	0.0478163
200	0x3da099cf	0.07841837
201	0x3d14a139	0.036286566
202	0xbd9be203	-0.07611468
203	0xbc8f0a38	-0.017460927
204	0xbd958e07	-0.0730248
205	0xbd317354	-0.043322876
206	0xbe006b06	-0.12540826
207	0xbdcf268a	-0.101147726
208	0xbdc08e4c	-0.09402141
209	0x3e03929d	0.12848897
210	0xbcb26891	-0.021778377
211	0xbcf77f34	-0.030212022
212	0xbd94296d	-0.07234464
213	0x3c858d99	0.01630287
214	0x3d8b6ef4	0.06808272
215	0x3de94f4d	0.113920785
216	0xbdcb0d6e	-0.09914671
217	0xbd875ff4	-0.066100985
218	0xbd869572	-0.06571473
219	0xbc73eb66	-0.014887666
220	0xbe0a2799	-0.13491668
221	0xbddf28f1	-0.10896481
222	0xbdb15f04	-0.08660701
223	0xbc429873	-0.011877167
224	0xbd9cd7b9	-0.07658333
225	0x3dea5142	0.1144128
226	0x3d3f1ca0	0.04665816
227	0xbd87337f	-0.06601619
228	0x3ca8c728	0.020602778
229	0xbd0d2656	-0.034460388
230	0x3d97e8f4	0.07417479
231	0x3d169253	0.03676064
232	0xbaa4a978	-0.0012562713
233	0x3d00159d	0.031270612
234	0x3d96f044	0.07370046
235	0x3a8a5118	0.0010552732
236	0x3c7cfd43	0.015441242
237	0xbda7e6cd	-0.08198319
238	0xbdb769f0	-0.08955753
239	0xbdb1a009	-0.086731024
240	0x3db93941	0.090441234
241	0x3bcc584f	0.006236113
242	0x3d43743a	0.047718264
243	0x3dfc4830	0.12318456
244	0xbd98e4eb	-0.07465538
245	0x3ba5e04d	0.005062139
246	0xbda76a37	-0.08174556
247	0x3e016d0c	0.12639254
248	0xbd9333c3	-0.07187607
249	0x3c516aab	0.012781779
250	0xbd91c01e	-0.071167216
251	0x3cdb7def	0.026793448
252	0x3e0038cd	0.12521668
253	0x3e0be176	0.13660225
254	0x3da52e71	0.080654986
255	0x3dacb4ca	0.0843292

model.layer_3.bias f4 [5]
0	0x3eb2d750	0.34929895
1	0xbdd9eac1	-0.10640479
2	0x3dd4e7a7	0.10395747
3	0x3e02c947	0.12772094
4	0x3e3e9027	0.18609677
